stored_models/Stock_Deep__2023_11_28_16_00_01/model_last.pth.tar (torch, 247142 bytes, 21 tensors)

l1.weight f4 [98, 49]
00000000: edc0 fa3d 87bc ee3d e2b4 92bb f98c febd
00000010: 1531 c13d 3797 1a3e da9e 36be 578c 2ebe
00000020: 4418 f43d 1a45 1dbe d3c4 5ebd 794d c0bd
00000030: 5dbc 05be 95e4 a33d 4ba7 463d 8438 b2bd
00000040: b1cd 8bbd 5bae c7bd 2636 03bd b0eb 1dbb
00000050: 7015 bc3d 6b61 edbd 8926 433e 6fe3 1b3c
00000060: 3017 b73d 79e5 ca3d 7875 af3d d245 6e3d
00000070: d18a 07be 1df7 cb3c 61e4 d43c 1626 50bc
00000080: 3801 043d df58 00be a240 283d 8773 af3d
00000090: 6186 14be 63a2 b23d cbd6 11bd eee7 f8bd
000000a0: 99e2 0cbd de9b ce3d 5163 3cbd d40a 1f3e
000000b0: 4ba3 e9bd d759 153e 640a d53b 88e0 c5bc
000000c0: 37b1 7e3d b79a e73d ef32 b73d 01b6 123e
000000d0: 8ead a33c fac2 df3c cd45 e8bd 8283 9dbb
000000e0: 5f94 cbbd 8a22 1a3d 6efe 92bd 619f 333e
000000f0: 2f8d fb3d 42ac 7bbd 0bd4 f33d bf0d 41bc
00000100: 57b8 43bd 8b68 96bd a283 33bb e7ad 19bd
00000110: 92a1 d7bd e73d c33d ee6d 083e f06b 9e3c
00000120: da5e 713d 88e6 223e d268 2bbd 822e 93bd
00000130: c10e 03bd bcf7 9ebd 14f2 bd3d 3f69 043e
00000140: 7951 ae3d 47e1 eb3d a9cb cfbc 8f06 933d
00000150: 7a8b 243d 1545 8e3c e62e 63bd b745 debd
00000160: 57d2 2dbc 5cf1 ef3d f92f 97bd 5729 a63a
00000170: 95e8 1fbd 24d5 a03d 4bc7 3fbc 3e3e 363e
00000180: 1ab8 39be b83b a8bc 88f6 eb3d 31cc 35bd
00000190: c16b 8e3d 9888 023d 75e9 06be fdf3 0d3d
000001a0: 9db0 583c 0ef5 c6bd 6321 babc ed08 a6bd
000001b0: 14e9 85bd 4fa4 623d d556 2abd 86eb b7bd
000001c0: a950 703d 3230 e43d e260 923d 4632 4fbc
000001d0: 5e7e 253e dc23 d83d f978 5fbd b7d3 53bd
000001e0: f053 aa3d f405 cdbd 1935 943d 3053 863d
000001f0: 7406 cd3d 6ed3 0f3d 8eab f5bd cf3e a33d
00000200: 0076 aabd 8a2d 31be e2cf b7bd 98be c13b
00000210: c829 12bd 80e6 973d a96e d63d 98d1 cabd
00000220: ccea 0a3d b32a 713d 4621 e43d bd7e 9fbc
00000230: 590c b2bd 7c7d 9a3c b857 57bd 8441 debc
00000240: 1ee0 8c3d 5cda 1b3e 0867 18bd 76f7 523d
00000250: ca4c 803d dc67 053e 75d8 ddbd d84f e1bd
00000260: 1a80 adbd ca8f 06bc 781b 593b 4c76 91bd
00000270: 97d4 923d b537 f43d 2782 82bd 5ebc 00bd
00000280: a2eb 89bc 5c27 37be fa49 53bd cfd8 003e
00000290: c724 c6bd 1035 a53d a5a8 813d 0cb5 c93c
000002a0: 26c9 27bd 53b8 d5bd f8a0 5abd af38 273e
000002b0: cebd 883d e5d8 1c3e f11d 753d 6320 8c3c
000002c0: 25f8 003e 88c2 d4bc c8e3 aabd 45b2 d3bd
000002d0: 86b4 8b3c 591d c83d 4743 c4bd d18c cc3d
000002e0: 6b92 253d bee4 a43c 8e74 babd 4926 95bd
000002f0: 4af1 fbbc 5cf6 1cbd bae4 173e 095b 033e
00000300: 97fa a33d 4730 66bd 861e 01bd ff06 1e3e
00000310: c197 2cbe ce63 883d a48b b93d d302 27be
00000320: cc71 033e a76b bbbd 45f4 f13d a1bd 573d
00000330: 5798 b9bc 0e8f 37be 24f6 143d 4629 88bc
00000340: c94e ad3d da1a 503d b10a 573d 83d4 0c3e
00000350: f72a a73d cfe5 c4bd e2e2 a9bd 03d1 c53d
00000360: 633c a33c 8db6 90bd 563c 19bc c48a 103d
00000370: 66e1 58bd a60c 66bd ae6f 2bbe c362 543d
00000380: cb5b 4cbd 915f e1bc c085 10bc d4f4 b63d
00000390: 5d62 143e d530 a23d 779d 92bd bb06 e6bd
000003a0: 31c1 163d 316b cabd d211 27be fe8a b53d
000003b0: 8678 9c3d ff53 e4bd 9352 653c 3e51 633c
000003c0: 3cec d4bb 0098 303d d1d8 08be 6443 683d
000003d0: 02c3 02be 0a4c 013d 2376 12bd 93b9 aabb
000003e0: 0d83 313d 4df7 da3d 9b30 963c 82b2 e43c
000003f0: a487 adbd 5c0b 72bd ab82 0c3d 3127 81bd
0.12243829 0.116570525 -0.0044771293 -0.12429232 0.0943319 0.15096746 -0.17834035 -0.17045723
0.11918691 -0.15358391 -0.054386925 -0.09389777 -0.13060136 0.08002583 0.048499387 -0.08702186
-0.06826342 -0.097500525 -0.03203406 -0.002409678 0.091837764 -0.11590847 0.19057669 0.009514674
0.089399695 0.0990705 0.08567327 0.058172055 -0.13236548 0.024898106 0.025987806 -0.012704393
0.032227725 -0.12533902 0.041077264 0.08566957 -0.14504386 0.08722379 -0.035605233 -0.12153612
-0.034395788 0.10088323 -0.045993153 0.15531474 -0.11408099 0.14585052 0.006501483 -0.024154916
0.062180724 0.113088064 0.08945262 0.14327241 0.019980218 0.027314652 -0.113414384 -0.0048069367
-0.09940409 0.037630595 -0.07177435 0.17541267 0.12282788 -0.061443575 0.11905678 -0.0117830625
-0.047783222 -0.07344159 -0.0027391692 -0.03751936 -0.10528864 0.09533291 0.13323185 0.019338578
0.058928348 0.15908253 -0.04184801 -0.07186605 -0.031996492 -0.07762095 0.09274688 0.12930773
0.085116334 0.115175776 -0.025365667 0.07178985 0.040172078 0.017366925 -0.055464648 -0.10853141
-0.010609231 0.117159575 -0.07382197 0.0012677115 -0.039040167 0.07853153 -0.01170523 0.17797181
-0.18136635 -0.020536289 0.115216315 -0.044384185 0.06954146 0.031868547 -0.13174994 0.034656513
0.013225702 -0.09714709 -0.022720998 -0.08107171 -0.06538597 0.055332478 -0.041586716 -0.089804694
0.058670674 0.11142005 0.07147385 -0.012646263 0.16161487 0.10553715 -0.054558728 -0.05171558
0.08316791 -0.10010901 0.0723669 0.065588355 0.100109965 0.035113744 -0.11995612 0.07970964
-0.08323288 -0.17302528 -0.089751974 0.005912613 -0.035684377 0.07417011 0.104703255 -0.09903258
0.033915326 0.05887861 0.11139159 -0.019469613 -0.086937614 0.018858664 -0.05257389 -0.02713085
0.068786845 0.15220016 -0.037207633 0.05150553 0.06264646 0.130279 -0.108323015 -0.11001557
-0.08471699 -0.008212993 0.0033127945 -0.071026415 0.071694545 0.11924688 -0.06372481 -0.03142964
-0.016835991 -0.17886108 -0.05158422 0.12582706 -0.096749835 0.080667615 0.063309945 0.024622463
-0.040963314 -0.10435548 -0.053376168 0.16330217 0.06676827 0.15317114 0.059843007 0.017105287
0.1259466 -0.025971666 -0.08344227 -0.103367366 0.017053854 0.097712226 -0.09583145 0.09987796
0.04042284 0.020128604 -0.09104262 -0.07282693 -0.030754704 -0.038320884 0.14833346 0.12827696
0.080067806 -0.056198385 -0.03152325 0.15432356 -0.16854765 0.06659661 0.090598375 -0.16309671
0.12836379 -0.091513924 0.11814169 0.05267108 -0.02265565 -0.17925665 0.03636755 -0.016621243
0.08462293 0.050806858 0.05250043 0.13752942 0.08162492 -0.09614145 -0.082952276 0.096590064
0.019926256 -0.07066069 -0.009352764 0.035288587 -0.05294933 -0.056164406 -0.16741821 0.051852
-0.049892228 -0.02751139 -0.008820951 0.08933416 0.14490648 0.0791947 -0.0715894 -0.112317525
0.036805335 -0.098837264 -0.16315392 0.08864401 0.076401755 -0.111488335 0.013996738 0.01387435
-0.006497888 0.04311371 -0.13363959 0.056704894 -0.12769702 0.031566657 -0.035757195 -0.0052101105
0.04333787 0.106917 0.018333724 0.02791715 -0.08473137 -0.059092864 0.034304302 -0.06306303

l1.bias f4 [98]
00000000: 30d8 753c 756c c6bd e997 963d 0585 b33c
00000010: c986 803d d45c 06bd 8ab5 25bd 0733 063e
00000020: 42bd 1abb a81a 26bc 744d 76bd cf8c f03d
00000030: df5e d93d 216b 833d ddec 0e3e 55ff 223e
00000040: c59c 3cbc c703 07b9 1e23 953d ebbb 99bd
00000050: d52d 84bd 0ac1 f13d 8af8 93bd c133 3d3c
00000060: a5f3 d0bd 8af6 75bd 06df 91bd 0164 e0ba
00000070: 2a43 6b3b 885a c23d 2f4c 9e3d 40ee 75bd
00000080: 93d7 c3bd b2e2 0c3e 6f75 0c3e 2950 ba3d
00000090: ca6b b3bd 7c5f a2bd 4f9d 97bd e558 053e
000000a0: 69bb bcbd 819d abbd 39be da3d 1546 a63d
000000b0: 96fb 143e 4d2b 123e a3ec b8bd 6086 7fbd
000000c0: f0c8 343e ebf2 bc3d f4d3 1e3d 6427 fb3d
000000d0: 11b9 683d 7d7d 193e d063 ebbd 2b45 b7bc
000000e0: 3e5b 08be 3d35 9c3d b8f5 91bd 5e6f f2bd
000000f0: c09c 953d dc7e bc3d 19ea f73d 6dc2 5bbd
00000100: c257 923b caf4 25bd 0428 323d 2456 613d
00000110: 05e4 363e a3bc 673d af79 313d 7c4a b5bc
00000120: abea aeba eca3 e83d dbf4 c2bc db52 013d
00000130: f744 1a3e 1802 c03d 6a01 bebc 3b08 efbd
00000140: d9ed 67bd 9922 3a3d dd40 593d bd61 e7bd
00000150: 3db6 f13d aa46 9ebd 37f0 c8bd e6ec 1a3e
00000160: 1bad 5b3d dd5e 5f3d 409e 353c 461a c1bd
00000170: 3005 973d 4925 e0bd b461 fd3d 6635 15bc
00000180: 99d4 1cbe 704d dcbc
0.015005156 -0.09688655 0.07353193 0.021914015 0.06275708 -0.03280337 -0.040456332 0.13105403
-0.0023611342 -0.010138191 -0.06013246 0.11745607 0.10613798 0.064169176 0.13957544 0.15917714
-0.011511986 -0.0001287601 0.07282089 -0.07506546 -0.06454054 0.118043974 -0.072251394 0.011547984
-0.102027215 -0.06004957 -0.071226165 -0.0017119647 0.0035898187 0.09489924 0.077293746 -0.060041666
-0.09562602 0.13758352 0.13716672 0.090973206 -0.087607935 -0.079283684 -0.07403051 0.13022192
-0.09215433 -0.08379651 0.10680813 0.08118836 0.14549097 0.1427433 -0.0902951 -0.06238401
0.17654777 0.092260204 0.038776353 0.122633725 0.056817118 0.14989276 -0.11493647 -0.022371849
-0.13316056 0.07627342 -0.07126945 -0.11837648 0.07305288 0.09203884 0.121051975 -0.053652216
0.004466028 -0.040516652 0.043495193 0.05501379 0.1786042 0.056576382 0.043328937 -0.022130243
-0.0013345083 0.113593906 -0.023798397 0.031573158 0.1506537 0.09375399 -0.023194034 -0.11671492
-0.056623314 0.04544315 0.053040374 -0.11297939 0.11802337 -0.07728322 -0.09811442 0.15129432
0.053631883 0.054533828 0.011085093 -0.094288394 0.07374036 -0.109446116 0.12372151 -0.009106969
-0.15315475 -0.026892394

l2.weight f4 [98, 98]
00000000: c4d8 21bc 6d87 233d c431 da3d 7dbe 63bc
00000010: 8782 ef3c 23b6 403d 6e2f c3bd e1b7 9bbd
00000020: 07d6 9dbc 9fcd a2bd 80f7 d7bc cf8e 4bbd
00000030: 58ed bd3c 0f7e e4bd d3a9 783d 3d46 55bd
00000040: 1c63 62bd fe67 44bd a740 92bb 0e60 763d
00000050: 0f9d 11bc 79a2 f7bc e963 823b 35b8 843d
00000060: cc32 653d 4314 5f3d 4fd8 4cbd c257 0dbd
00000070: 16cf d53c cbc2 01be 9e42 d83d e93b 28bd
00000080: 5a05 edbc dbae 143d fbaa ce3c fdad a1bd
00000090: 4494 eaba 3e8d 0f3e c4c5 8fbb d5fc 803d
000000a0: 493a 143d 40b6 df3d efbf 80bc ee02 29bd
000000b0: e0b3 89bc 6de3 023e 370e 2bbd eb6f d33d
000000c0: a97d 9f3d d5b7 793d 80ea 1c3e e53d 0ebd
000000d0: b6df bdbd 1e96 453c 6ce5 86bd 2ed8 0c3d
000000e0: ba78 b53d a8a8 aa3a 11ed 853d 8afb ea3d
000000f0: 8ca1 903d 3399 acbd df1c 993d 648c 013e
00000100: bede 913d 5c09 b0bd 1377 dfbb 8a04 3dbc
00000110: b131 62bd 265d 8a3d 5ced 503c f51f c63d
00000120: d2d5 b73d 8a0d 173e 57a0 013e b05b 3b3c
00000130: 2805 693d 4292 5c3d f461 9bbc 6820 6cbd
00000140: 5aed cd3c f93f 253d 8c68 a33d 1ff3 1c3d
00000150: 190e cdbd af00 023e de80 dfbc d1fe e63d
00000160: 0f45 d4bd 047d 0b3e 5774 9dbd dedc 883d
00000170: d622 8c3c c72a fb3b f19b 51bd a966 033d
00000180: 6755 8a3d 1424 33bc 8054 323d 0e48 e5bc
00000190: 97d2 a93d 182e 88bd fcfd 1c3e f200 283d
000001a0: 241c 063d 4ba3 8abd 925b a43d 834e a13d
000001b0: a219 8cbd b6a2 7f3d 5683 5a3d e031 8fbd
000001c0: e283 623c d3ef 073d 66e9 a83d 4d82 993d
000001d0: 4988 21bd fde4 853d 0377 963d 5d09 12bd
000001e0: efab b13d 43f3 043d 57a6 b53c 57c7 fdbc
000001f0: 989e a8bd 35dc 073d 9cad a0bb 392d ebbc
00000200: 3d4d 75bc 1bd4 993d aa49 acbd 2e1e c9bd
00000210: 7115 df3d 4a3b 16ba 8e5c 8dbd 2fd2 0f3e
00000220: 7db9 bcbd 6c88 b03c 3116 a93d 9e17 8e3d
00000230: 2a83 cdbc ba66 71bd ecd7 b73d d268 6dbc
00000240: c169 163d 074c ba3d 7ba9 df3d 5005 03bd
00000250: 4843 953d a17b 95bd ec11 e1bc 6737 4b3d
00000260: aa5e b9bd 115a 8abd ba43 7abd da41 76bd
00000270: 0c13 cfbc 002b 343b 4b97 6e3c 7d9a 5a3c
00000280: 35c4 26bd de3c c83d acae e83d 100d f5bd
00000290: ebb0 b53d 926e bf3c 3509 d9ba e6ee efbd
000002a0: 6f3e 03bd 1060 b03d 169e 1e3d aebb ea3c
000002b0: 6af5 7dbc c778 fa3b 6ad8 c1bd 6bc5 c939
000002c0: 9b16 b9bc 00a7 89bd 833b 363d 8e3e b7bd
000002d0: 174f dc3d e541 cab9 910c ba3d 27c6 8d3d
000002e0: 6eeb 563d 5ad0 b1bc e61f c9bd ca98 1f3e
000002f0: 4867 1e3d 749e 42bc 9d90 03be 547f 8ebd
00000300: aaa8 523d 4ec3 1cbd 269a 86bd 711d 813b
00000310: 9e4a 19bd 6d85 97bd 0083 073d 8150 c23c
00000320: 5d9f 9abd 6ff0 aabd e843 4cbc 9a6a 8b3d
00000330: ee88 183c 5416 143e 4e61 57bd 4e66 98bd
00000340: 9b75 84bd 4e62 e33d 7021 0a3d f60b b8bd
00000350: ca2c 833d 1cae ca3d 8283 9cbd 0fa2 bc3c
00000360: e40f aa3d f195 82bd dc3e b1bd c6ba a3bd
00000370: 5ad0 8d3d 0eed 06bb 96e7 343d 5e00 45bd
00000380: 955f e43c 228c 2e3d fbfb b63d f73d 33bd
00000390: 21b2 d73c ade0 2a3d 3898 0fbc c665 103d
000003a0: 6b98 09bd 7610 5bbd bcec 50bd 6006 883d
000003b0: bcba e2bd e4a3 c1bd 0d43 85bd cea9 01bd
000003c0: d09f afbd 173b afbd 4649 bd3d d276 a93d
000003d0: eb14 b1bd 20c0 b9bd 10e3 d2bc 30a7 863d
000003e0: a8b5 b33d e974 053e b007 08bd 5b52 ad3d
000003f0: 1b89 d73d d669 273c 6a9c f8bd 491f dfbc
-0.009878341 0.039924074 0.10654023 -0.013900396 0.029237045 0.0470487 -0.09530531 -0.076034315
-0.019267095 -0.07949375 -0.026363134 -0.04969674 0.023184463 -0.11156856 0.060708832 -0.052068938
-0.0552703 -0.047950737 -0.0044632736 0.0601502 -0.008887543 -0.03022884 0.0039791954 0.06480447
0.055956647 0.054462682 -0.050010975 -0.03450752 0.026099723 -0.12671964 0.10559581 -0.04107276
-0.028933216 0.036299568 0.025228014 -0.07894514 -0.001789697 0.14018723 -0.004387589 0.06298224
0.036188398 0.10923433 -0.015716521 -0.04126256 -0.016809404 0.12782069 -0.041761603 0.10324081
0.0778764 0.06096633 0.1532383 -0.034726996 -0.09271185 0.0120597165 -0.065867275 0.034385853
0.088609174 0.0013020234 0.065393575 0.114737585 0.070620626 -0.08427658 0.0747621 0.12651211
0.07122563 -0.08595535 -0.0068196147 -0.011536727 -0.05522317 0.06756048 0.012751903 0.09674064
0.0897633 0.14751258 0.12658821 0.011435434 0.056889683 0.05385042 -0.018967606 -0.057648093
0.025137592 0.040344212 0.07978925 0.038317796 -0.100124545 0.12695573 -0.027283128 0.11279071
-0.103647344 0.13621908 -0.07688206 0.06682752 0.017106455 0.0076650116 -0.051174108 0.032080326
0.067545705 -0.010933895 0.043537617 -0.02798846 0.0829212 -0.06649417 0.15331262 0.041016527
0.03274168 -0.06769427 0.08025278 0.07876303 -0.068408266 0.062411033 0.053347908 -0.06991935
0.013825389 0.0331877 0.08247642 0.07495556 -0.039436612 0.06537817 0.073469184 -0.03565346
0.08675372 0.032458555 0.022174044 -0.030978842 -0.08233374 0.03316899 -0.0049035084 -0.028708087
-0.014972028 0.07511159 -0.08412488 -0.098202094 0.108927615 -0.00057308807 -0.06902419 0.14045022
-0.092150666 0.021549426 0.08256186 0.06938098 -0.025086958 -0.05893586 0.08976731 -0.014490323
0.03672195 0.09096532 0.10920998 -0.03198749 0.072882235 -0.07298971 -0.027474366 0.049613383
-0.09051259 -0.0675546 -0.061099745 -0.060121395 -0.025277637 0.002749145 0.014562438 0.013342497
-0.04071446 0.097772345 0.11361441 -0.11965382 0.08871635 0.023368154 -0.001655853 -0.11715488
-0.032041963 0.086120725 0.03872498 0.028653946 -0.015500406 0.0076437923 -0.09465106 0.00038484795
-0.022593787 -0.06721306 0.04449035 -0.08947478 0.10757273 -0.00038577538 0.09084428 0.0692256
0.052470617 -0.021705795 -0.09820537 0.15585628 0.038672715 -0.0118785985 -0.12848134 -0.0695788
0.05143038 -0.038272195 -0.0657237 0.0039402773 -0.037424676 -0.07398496 0.033083916 0.023720028
-0.075499274 -0.0834664 -0.012467362 0.06807442 0.00930999 0.14461643 -0.05258303 -0.07441388
-0.06467744 0.111027345 0.033723295 -0.08986656 0.06405027 0.0989649 -0.076422706 0.023026494
0.08303812 -0.06376255 -0.086545676 -0.079946086 0.069245055 -0.0020588073 0.04416617 -0.048096053
0.027877608 0.04261411 0.0893478 -0.043760266 0.026330056 0.041718174 -0.008764319 0.03525331
-0.033592623 -0.053482495 -0.051007017 0.06641841 -0.11070773 -0.09455088 -0.065069295 -0.03165608
-0.08575404 -0.08556192 0.092424914 0.08274616 -0.08646568 -0.09069848 -0.025743037 0.06574857
0.087748826 0.13032879 -0.033210456 0.08462974 0.10524198 0.010218104 -0.121392086 -0.027236598

l2.bias f4 [98]
00000000: c908 b23c f095 a23d 648b 7cba 01b4 643c
00000010: d8af 113c 732f 86bc e9e2 073d 7a18 febc
00000020: e94e ffbc 556b d33d e0b9 9bbd 3760 fe3c
00000030: ed4f 0f3c 1efe ccbd fdf9 483d 4398 fb3d
00000040: 8417 ecbc 3501 8c3c 5189 36bd b502 463d
00000050: fbd4 64bc 6506 98bd 81d4 dcbc 0895 51bc
00000060: 5e65 db3d 9eea 96bc db3e a0bd 116f 9cbc
00000070: 9608 0e3d 3062 153e e656 c5bc 363a edbc
00000080: ed79 8c3c 2381 db3d 1134 e53d d340 94bd
00000090: 5c7c 6c3d ef48 063e 782f 4fbd d5e3 373d
000000a0: 046a b3bd f480 3f3b 31a6 95bd b012 bb3d
000000b0: 3d8c adbd 596f 33bd 423d 4cbc 5209 8f3d
000000c0: c039 b2bb 0e52 e73d 1330 d1bc 3e4b d0bc
000000d0: 7d0b 043d e927 78bd 12cd a5bd 3e7c 023e
000000e0: 8e90 a43d 7ee5 163d ad97 d8bc 757a 3a3e
000000f0: a193 8bbc 3401 553d c163 aabd 8d50 b0bd
00000100: 995a 7d3d b3a8 443d 05d6 be3d d1d4 113e
00000110: 4277 b2bc d1ef 04bb 3214 94bd 37be a53d
00000120: 612f 383d 47fb 59bd f86d d5bc 55ab 133d
00000130: 07a0 103e 2dc1 aebd 7b2f 503d 6592 773b
00000140: eef4 883d 8f48 1f3e b3a6 86bd 2b6a fa3d
00000150: 31bb 54bc 61a3 9f3b eb44 973c 8ef6 1c3d
00000160: d55d 183e 5c03 83bd ee93 2c3d 67dc 4dbc
00000170: acb0 a73d 9850 263d 1ad3 203d e931 29bd
00000180: 1676 9e3d 9047 273d
0.021732705 0.079387546 -0.0009633808 0.013958932 0.008892022 -0.016380047 0.033175383 -0.03101753
-0.031165557 0.10323206 -0.07603812 0.031051738 0.008747083 -0.100094065 0.049066532 0.12284901
-0.028819807 0.01709042 -0.04456455 0.048342425 -0.013966794 -0.07423095 -0.026956799 -0.0127918795
0.10712694 -0.018422421 -0.07824489 -0.01909593 0.034676157 0.14588237 -0.024089288 -0.028958421
0.017147982 0.1071799 0.111915715 -0.07238927 0.057735786 0.1311376 -0.05058238 0.044895012
-0.08760455 0.002922115 -0.07307089 0.09134424 -0.08474014 -0.04380736 -0.012465777 0.069841996
-0.0054390132 0.112949476 -0.025535619 -0.025426503 0.03223752 -0.060584936 -0.08095755 0.12742707
0.08035384 0.036839955 -0.026439512 0.18210776 -0.017038168 0.0520031 -0.08319808 -0.08609114
0.06185398 0.048012447 0.09318165 0.1424134 -0.021785382 -0.0020284543 -0.072304145 0.08092921
0.04496706 -0.053218152 -0.026053414 0.036052067 0.14123546 -0.08532939 0.05082653 0.0037776467
0.06687342 0.15555023 -0.06574764 0.12227281 -0.012984083 0.004871771 0.01846548 0.03832107
0.14879544 -0.06397125 0.042133264 -0.012564755 0.08187994 0.040604204 0.039263822 -0.041307364
0.07737367 0.04083973

l3.weight f4 [49, 98]
00000000: cbaa c03d fe8c 3b3e 811a 85bd 298f c9bd
00000010: 13f2 b73c 555e 163e 60dc 7dbd 3ce2 1bbd
00000020: b355 2ebc e5db 6fbc 2cd8 8e3c d4bd eb3d
00000030: ea12 783d 7ca9 5f3d 6e80 193e 024e 363c
00000040: c58b 02be 6a62 c8bd 684e 493d ba82 24bd
00000050: 0d2f 543d d586 233a b463 a33c a9db bc3c
00000060: 9878 1a3e 73f8 febc bb7b 2fbd 69f2 6b3c
00000070: 0934 423d 72d8 4a3d 86f9 c93c 4552 02be
00000080: 2c63 303e 37e1 ffbd 4c45 2fbd 3273 44bd
00000090: 812a 9bbd db9f 2f3c 84f4 8fbd 200c c93d
000000a0: 7510 483d 6b22 2ebd f073 bdbd aaff 533d
000000b0: 0d26 163d fb57 b4bd 035a 283c c975 b9bd
000000c0: d823 9bbd 5d6e e4bd dd83 143c b016 f13d
000000d0: 38ce 723d f8e8 39bd 6d34 c33d ee45 693d
000000e0: f866 3abb 076e 6b3d 873d 8e3d 398e db3c
000000f0: 9c6c e6bc dacc 0f3d 6a02 ae3d aa7b c8bb
00000100: a7d2 383e 93c9 2a3e 9b87 b83d 8858 fb3d
00000110: d26f b83d a990 d2bc 0c93 c33d 5567 433d
00000120: 3ab8 d13d c7e4 9b3d 9349 fd3b 44bc 893c
00000130: 2b96 20bd d85b 743c cc15 a6bd 7350 97bd
00000140: a187 d7bd 0ac9 973d 20bf 8ebd 2297 6c3c
00000150: 61ee 013d d6df 503c ece8 573d a7f5 d139
00000160: f76a 60bd ba80 183e c22b e8ba a9a2 183e
00000170: 4074 abbd 57a4 dbbd ea43 c73d 49ab a1bd
00000180: 8110 abbb 54c9 0c3e eda7 fa3d c368 243e
00000190: 70a9 8bbc 15d7 8ebd aab8 023d bcb4 7e3d
000001a0: 8d44 cb3d 5444 b0bd 7c30 053d f7c1 8b3c
000001b0: 44e3 c93c fc9f 913d d194 8cbd e6b1 443d
000001c0: 31ab 39bb 7a15 f83d 9c85 2cbd 1d55 233d
000001d0: 0477 943d 8d2b 56bd f56c 5fbc dfb9 04bd
000001e0: a48e 9a3d ad24 dd3c 131a 153d 5b0a 2d3b
000001f0: 551a 153c 1e3d 38ba 29c7 113e 96b1 893d
00000200: 7718 283d 3352 febd 5113 563d b345 5dbd
00000210: 05bf c6bb 1265 d3b9 e4d5 88bc 0fb6 68bd
00000220: 06ec 9fbc 737f 5c3d e905 c23b a6f9 303c
00000230: 04a3 3dbd 69aa 2abd 6b70 833d 0392 07be
00000240: d260 61bd 3017 523d 48cb ce3c b728 22bd
00000250: fe7d 9abc 304b 19ba 42f7 2cbd 3a22 4b3d
00000260: 99b6 5f3d b660 3d3c 36a8 0fbd b052 6e3c
00000270: 2728 733c fa0a c43d 222e e3bd 1f2a c93d
00000280: 5655 b1bd e77a e2bd 6586 123e a84c f338
00000290: 86a8 173d 776b 62bd fdf6 1abd dcb1 923d
000002a0: 60f5 e3bc 1717 c6bd 8998 c73b a3c9 a93c
000002b0: 5070 313e 3c6b f73a 195d 7bbd 3a15 2abc
000002c0: 572c f2bd 94d0 d1bd 79a8 b3bd 04f8 b6bc
000002d0: d5f0 153b a04b 023e 6f03 373d 9ca4 df3b
000002e0: 4e6e 343e 7387 40bd 7c24 2f3c d983 b63d
000002f0: da76 863d 1004 a43d 4b6a 45bd cc0e 04be
00000300: 4493 df3d e6bd 50bd 99bb 8a3c 0468 943b
00000310: 6db3 03be 06ce c9bd 9df1 0d3e 38db 993c
00000320: a45d db3d 7fbf a7bd fcb5 9dbd 5515 d83d
00000330: 2b5f 403d 3a77 9ebc 1dd5 803d 8a16 e4bd
00000340: fcda da3d 5757 bd3b 9ba7 1dbb 09cf a23d
00000350: ce18 3a3c 4e2d 143e a01d ee3a fa03 ac3d
00000360: 9abe 023e 8c2f 05be 36f6 16bd 99dd 0b3d
00000370: 24f3 15be 73f6 8d3c 07f8 143e 75eb bb3c
00000380: 9718 aebc 3f68 633b 9b21 a6bc ace5 ec3b
00000390: 787d dfbb 7a38 6f3a 0913 263e f3f3 b53d
000003a0: 6331 5f3d 4442 af3d 172c c63d b988 9f3d
000003b0: 236a fa3a 5f98 7c3d 7317 953c 1b40 143e
000003c0: 4f21 213e dab3 1b3e 59dc 4c3d ea66 cd3d
000003d0: 60b4 f13d b086 3d3e 8fbe b0bd 7f1c f2bd
000003e0: 3048 05bd 4cbe 9a3d 8e66 9a3c 095a ba3d
000003f0: 5054 023e 7274 e1bd 4613 d8bd 74ba 463d
0.09407576 0.18315503 -0.06499196 -0.09841759 0.022454297 0.14684422 -0.061977744 -0.03805755
-0.0106405495 -0.014639829 0.017437063 0.11510816 0.060564913 0.054604992 0.14990398 0.011126997
-0.1274863 -0.09784396 0.04914704 -0.040163733 0.051802684 0.0006238048 0.019945003 0.02305396
0.15085065 -0.03112433 -0.042842608 0.014401057 0.047412906 0.049522825 0.024655115 -0.12726696
0.17225331 -0.12494128 -0.042790696 -0.04796142 -0.07576466 0.010719265 -0.070290595 0.09816766
0.04884382 -0.042513292 -0.09250629 0.051757492 0.03665738 -0.088058434 0.010275367 -0.09055669
-0.07575196 -0.111538626 0.009064642 0.117719054 0.059278697 -0.045388192 0.09531484 0.056951456
-0.0028442722 0.057477977 0.06945329 0.026801215 -0.02812796 0.03510747 0.08496554 -0.0061182575
0.18049107 0.16678457 0.0901024 0.12272745 0.09005703 -0.025703745 0.09549531 0.047705967
0.102402166 0.07611995 0.007729718 0.016813405 -0.03920571 0.014914475 -0.08109626 -0.07388391
-0.10523916 0.07411392 -0.06970048 0.01444033 0.031721476 0.012748679 0.052712366 0.00040046612
-0.05478951 0.14892855 -0.0017713236 0.149058 -0.08371782 -0.10724705 0.097297505 -0.07893998
-0.0052204733 0.13748676 0.122390606 0.16055588 -0.017048568 -0.069746174 0.03191439 0.06218408
0.099251844 -0.086067826 0.03251694 0.017060263 0.024644502 0.07110593 -0.06864322 0.04802122
-0.0028330798 0.12113471 -0.042119607 0.039876092 0.07249263 -0.052287627 -0.013636817 -0.032403823
0.07546738 0.026995027 0.03640182 0.0026403877 0.009100516 -0.000702815 0.1423613 0.06723325
0.041038956 -0.12418022 0.052264515 -0.05402155 -0.006065252 -0.0004032036 -0.016703553 -0.05681425
-0.019521724 0.053832483 0.0059211147 0.010801708 -0.046298042 -0.041666422 0.064179264 -0.13239293
-0.055023976 0.051291645 0.025243416 -0.03958961 -0.018858906 -0.00058476906 -0.04222799 0.049593188
0.054617498 0.011558702 -0.035072528 0.014546081 0.014841116 0.09572406 -0.110927835 0.09822487
-0.08658855 -0.11058598 0.1430908 0.00011601421 0.03702595 -0.055278268 -0.037833203 0.0716283
-0.027826965 -0.09672373 0.0060911817 0.02072603 0.17328 0.0018876563 -0.06136808 -0.010381037
-0.118248634 -0.10244861 -0.08772368 -0.02233506 0.0022879143 0.12724161 0.04468101 0.006825043
0.17620203 -0.047004174 0.010689851 0.08911867 0.06565638 0.08008587 -0.048197072 -0.1289627
0.109167606 -0.05096235 0.016935157 0.004529001 -0.12861414 -0.09853749 0.138617 0.01878129
0.1071122 -0.08190822 -0.077007264 0.10550944 0.04696576 -0.019343961 0.06290648 -0.111371115
0.10686299 0.005778234 -0.00240562 0.07949645 0.011358453 0.14470407 0.0018166788 0.08399196
0.12768021 -0.13006419 -0.0368559 0.03414688 -0.14643532 0.01732943 0.1454774 0.022939423
-0.02125196 0.0034699587 -0.020279696 0.0072295275 -0.006820377 0.0009125542 0.16218199 0.0888442
0.05449046 0.08557561 0.09676378 0.0778975 0.0019105118 0.06166875 0.018199658 0.1447758
0.15735362 0.15205327 0.050014827 0.10029395 0.11801982 0.1850841 -0.08630096 -0.118218414
-0.032539546 0.075558275 0.01884773 0.09099204 0.12727475 -0.11008538 -0.10550551 0.04851766

l3.bias f4 [49]
00000000: 90a8 f83d 3e63 e33d 6939 cb3d 5de9 0d3e
00000010: 9c7c 063e 41d1 0e3e 2e1c a8bd bc79 d13d
00000020: 975f abbc d8d9 063e f480 613d 4103 5f3d
00000030: 069a dbbc 1188 86bd 5e79 09bb 9935 f73d
00000040: 146c b43d a7ca 833d 6853 ae3a b8c9 a33c
00000050: aa39 73bc 2c01 dbbc caaa 88bb 8a46 4b3d
00000060: a8b3 b03c f01e 94bd bcfc 34bd 9827 fb3d
00000070: 2bd3 093e 3ceb 273d 7e9e af3d d169 5a3c
00000080: c8c3 32bd b51e 963c cf76 11bc 0fb2 923d
00000090: 8e89 2abd b6fc 713d bee6 fc3d e05a 913c
000000a0: 78da fe3d 691c e7bb 120d f63d fc64 aebd
000000b0: 9050 a8bd 816c 55bd 2b3e 3c3d 17eb a83c
000000c0: 41b2 fb3d
0.12141526 0.11102913 0.099230595 0.13858552 0.13133472 0.13947012 -0.082085 0.10228297
-0.020919604 0.13169038 0.05505462 0.054446463 -0.026806843 -0.06568921 -0.0020976881 0.1207077
0.08809677 0.06435137 0.0013300003 0.019993648 -0.014845291 -0.026733957 -0.0041707503 0.04962782
0.021570042 -0.07232463 -0.04418634 0.12263411 0.1345946 0.04099582 0.08575152 0.013330893
-0.043643743 0.01832519 -0.008878424 0.07162868 -0.04163509 0.059078895 0.12348698 0.017743528
0.12444013 -0.0070529473 0.12014212 -0.08515355 -0.08218491 -0.05210543 0.045957725 0.020619912
0.122898586

output.weight f4 [1, 49]
00000000: 3428 58be 5315 47be 89e4 273e 1d3c 7dbe
00000010: f9d8 713e a7e8 65be 328c 6b3d 7c7c eb3d
00000020: 5d7a 0b3e ce93 4bbe 85b0 18be c2fe 763e
00000030: 6f14 ee3d de13 7a3b a240 39be 114d a03d
00000040: 97ba 1dbe 5149 44be a0ba 01be db23 0f3e
00000050: e00b 413e 4f78 333e 0649 4e3e bfa7 3c3e
00000060: 4994 6e3e 7dfe 813d 0c13 fabd 331f 3bbe
00000070: a71f 6cbe 3d0f 0b3e 22e1 27be dbe4 00be
00000080: 28e3 303e 4627 3abe 4f9c 4bbe 0112 40be
00000090: d868 303e 3371 053e a3f0 2a3e a7d0 32be
000000a0: 4673 75be 2401 afbd 3217 f63d d427 e93d
000000b0: c6e9 da3c 7a9f 393e f71a 05be 0cea ddbd
000000c0: 9d99 23be
-0.21109086 -0.19441728 0.16395773 -0.24729963 0.23617925 -0.22452031 0.057506748 0.11498353
0.13620897 -0.19880602 -0.14911087 0.2412062 0.11624991 0.0038158814 -0.18091062 0.07827199
-0.1540321 -0.19168593 -0.12668848 0.13978522 0.18852186 0.17526363 0.20145044 0.18423365
0.23298754 0.06347368 -0.12210664 -0.1827362 -0.2305895 0.13580032 -0.16394475 -0.12587301
0.17274153 -0.18179044 -0.19883846 -0.18756868 0.17227495 0.13031463 0.16693358 -0.17462407
-0.23969755 -0.085451394 0.12016143 0.1138455 0.0267228 0.18127242 -0.12998568 -0.108356565
-0.15976568

exp_avg f4 [98, 49]
00000000: 55b4 5bb8 368a 98b8 8168 18b8 40c2 95b7
00000010: c316 50b6 bc74 4ab7 c658 2eb8 2db4 e838
00000020: 3bf9 adb8 1c06 c338 7cc2 7c38 7e29 5238
00000030: 1e8c adb7 1d79 a438 083c 00b8 3ebf 70b7
00000040: 71be 73b8 ece3 c7b8 c819 a7b7 f89e 5eb8
00000050: 4188 9837 1977 fbb5 0f30 0ab8 bf78 e738
00000060: 70b4 2bb8 f26f ae35 e915 a235 6688 0636
00000070: 7530 5ab8 884e 2e37 359d f3b5 6e35 8cb7
00000080: 0351 0937 4610 55b6 5a73 ea35 9677 88b7
00000090: 5a04 58b7 fd1d 6938 bfac 05b8 eabb 3e37
000000a0: 30ae 3d37 a8e8 1cb8 60a5 4038 f8ff c636
000000b0: 797f 8737 7c0a e836 fd0a 4f37 5611 21b8
000000c0: 63b6 6537 9e57 47b3 f5c6 9237 3bf1 efb6
000000d0: f0df 8237 3db0 b0b7 71ad 3c36 c91d ddb4
000000e0: ed94 eeb7 8595 ccb6 7996 3db6 b340 44b7
000000f0: 058c dbb7 a224 dcb7 109d a2b6 6f66 a436
00000100: 2c7f 4a37 c085 7737 6912 5b37 2668 e136
00000110: 88fa 1737 c7e8 dcb6 d083 bbb6 8513 bc36
00000120: 6bff ca36 fe4a 1bb8 a3bf e8b5 580a 68b6
00000130: 27a3 93b6 4a23 20b6 a2fc 3cb8 cdd3 6f36
00000140: c16c d6b5 a627 f4b6 b70b 0237 d8ab 26b6
00000150: a40e 4db7 808f 4536 2524 9ab7 bf61 2538
00000160: 2a0f df37 4d53 90b3 b3c9 ad37 6e8c 05b7
00000170: c658 ff37 d9c0 77b7 c10a 37b6 a1d3 91b7
00000180: 44d7 1937 9fcb d237 f98d 9ab7 3781 15b8
00000190: 43f3 d035 54a5 87b6 fe8a bb37 9583 8ab7
000001a0: 8362 80b6 cdb3 0b38 c253 6eb7 9008 4036
000001b0: 354b 4437 9b74 10b7 bad7 9237 cbcb b937
000001c0: e5fb 27b7 00f8 9036 a4ec 2136 7ee0 6bb7
000001d0: 9a71 35b6 a99d d9b5 3401 9bb7 4a29 8337
000001e0: 9d9d a1b3 8cac 8437 d7fb 4637 85ee 34b7
000001f0: 99e3 2db7 79b1 60b7 e0ea 52b7 0e0d 09b7
00000200: 1757 2d37 6760 ad37 f8f9 a3b6 eba1 b4b7
00000210: bcdc 3a37 a21f 3037 3905 8f36 0c5a f3b5
00000220: d241 d2b7 fa2d bbb6 94e0 95b7 f2f9 ad36
00000230: c43c bd37 4761 be36 d5f7 85b7 ab96 1136
00000240: 3887 dcb7 07c6 5537 627a b4b6 785a 2537
00000250: bc05 6036 386c 7237 a4f6 4034 e641 a036
00000260: a136 6d35 5c47 e037 2b35 1bb8 9274 2438
00000270: a249 d4b7 4fba a436 0ab8 acb5 9c4a 3737
00000280: 015f b9b7 753f a736 86a8 2b37 90cd afb4
00000290: 9e70 0238 ffa2 c137 8a7f 1336 b50d 81b4
000002a0: 7189 ed34 addb 2d37 82a1 59b8 5378 8137
000002b0: 4e46 0db6 29ef 0cb6 0cb4 2fb6 5b6a ab37
000002c0: cf0c 3336 0e0b 8eb5 dea4 37b6 84f1 b335
000002d0: b8c0 0236 317a a5b6 76f6 f7b5 86e8 ca36
000002e0: 6536 a3b7 2c84 8ab7 db95 2eb7 1e9f 30b6
000002f0: 654b 3937 cc0a f1b5 3ddb 28b7 f7be 80b7
00000300: 0c71 15b6 dc32 e835 b4aa f436 9d00 3ab7
00000310: 1791 9337 9067 89b7 7f52 22b8 0c99 3138
00000320: 4e08 cab7 db85 adb7 c7bc 5eb7 f856 9437
00000330: 3467 ddb5 1255 0b38 e76f 26b7 4813 9cb7
00000340: 7c93 91b8 80a8 1b38 8203 8436 4a9a 6835
00000350: ed6b 9436 0253 08b7 7f29 b937 316e d2b6
00000360: 697a 8cb5 30f5 9534 ebca 0b38 fc36 e2b6
00000370: 88d7 55b8 b778 8eb6 0280 55b6 aad5 6eb6
00000380: 5511 0937 4f61 56b8 c962 7e36 1311 0bb5
00000390: ec46 9136 079d 1036 c4db 4c36 84d2 cc37
000003a0: a905 ae35 f49f 7436 a3e2 5038 0c0d f137
000003b0: 0e2f 52b6 97d8 0938 f3df 3737 8cd9 0338
000003c0: 2051 42b8 483c 1538 2cae 08b8 be43 b037
000003d0: 0c41 2f38 dba1 68b6 a9e8 1f37 98e7 3cb6
000003e0: 257d ef36 c398 9836 1872 32b6 1381 ae37
000003f0: 86d8 a9b7 a813 2f37 b41a 14b7 f02a 3736
-5.2381616e-05 -7.2736686e-05 -3.633695e-05 -1.7852639e-05 -3.1007664e-06 -1.2067318e-05 -4.156751e-05 0.000110961824
-8.2957056e-05 9.2994625e-05 6.026261e-05 5.0106544e-05 -2.0688454e-05 7.8426885e-05 -3.0573487e-05 -1.4349642e-05
-5.8113077e-05 -9.531513e-05 -1.9919957e-05 -5.3076976e-05 1.818326e-05 -1.8735619e-06 -3.2946522e-05 0.00011037429
-4.0937623e-05 1.2996591e-06 1.2076317e-06 2.004695e-06 -5.202038e-05 1.0389493e-05 -1.8150664e-06 -1.671418e-05
8.184698e-06 -3.1748946e-06 1.746793e-06 -1.626815e-05 -1.2875616e-05 5.5579458e-05 -3.1870553e-05 1.1368635e-05
1.1305834e-05 -3.7409976e-05 4.5930385e-05 5.9306585e-06 1.6152613e-05 6.9153593e-06 1.234072e-05 -3.8401537e-05
1.3691929e-05 -4.6412985e-08 1.7497203e-05 -7.150838e-06 1.5601487e-05 -2.1062902e-05 2.811514e-06 -4.118613e-07
-2.844116e-05 -6.09708e-06 -2.8250781e-06 -1.1697574e-05 -2.6172036e-05 -2.6243102e-05 -4.8462607e-06 4.8995057e-06
1.2069748e-05 1.4753488e-05 1.3057704e-05 6.717647e-06 9.058633e-06 -6.58361e-06 -5.5883793e-06 5.605109e-06
6.0498037e-06 -3.702472e-05 -1.7341121e-06 -3.4576715e-06 -4.399935e-06 -2.3862399e-06 -4.5057976e-05 3.573706e-06
-1.5975894e-06 -7.2763823e-06 7.751331e-06 -2.4835954e-06 -1.2222361e-05 2.9438816e-06 -1.8375062e-05 3.94301e-05
2.6590733e-05 -6.720675e-08 2.071713e-05 -7.960114e-06 3.0439707e-05 -1.4767248e-05 -2.7275385e-06 -1.7383894e-05
9.169631e-06 2.512877e-05 -1.8424342e-05 -3.564471e-05 1.5568006e-06 -4.0425602e-06 2.235686e-05 -1.6512155e-05
-3.8261655e-06 3.3307635e-05 -1.4205407e-05 2.8615214e-06 1.1700021e-05 -8.610218e-06 1.7505012e-05 2.2148617e-05
-1.0012624e-05 4.3204054e-06 2.4128612e-06 -1.405936e-05 -2.7037227e-06 -1.6213645e-06 -1.8478e-05 1.5635644e-05
-7.5258164e-08 1.5815975e-05 1.1860356e-05 -1.0784371e-05 -1.0364595e-05 -1.33927615e-05 -1.25716615e-05 -8.168876e-06
1.0331881e-05 2.0668098e-05 -4.8868787e-06 -2.1533071e-05 1.1137858e-05 1.0497783e-05 4.26234e-06 -1.8131118e-06
-2.50646e-05 -5.5783867e-06 -1.7866761e-05 5.1848992e-06 2.2558852e-05 5.673766e-06 -1.5970241e-05 2.1694384e-06
-2.628901e-05 1.2741896e-05 -5.3786653e-06 9.85583e-06 3.338194e-06 1.4449521e-05 1.7971121e-07 4.776043e-06
8.8368876e-07 2.673611e-05 -3.7004396e-05 3.920921e-05 -2.5306657e-05 4.90927e-06 -1.2868561e-06 1.0925021e-05
-2.2097958e-05 4.984375e-06 1.0231632e-05 -3.2745857e-07 3.10993e-05 2.3083294e-05 2.1978944e-06 -2.4038096e-07
4.4244692e-07 1.0362751e-05 -5.1887248e-05 1.5434029e-05 -2.105156e-06 -2.1000835e-06 -2.6181833e-06 2.0434314e-05
2.6680534e-06 -1.0583042e-06 -2.736509e-06 1.340683e-06 1.9483687e-06 -4.931608e-06 -1.8474664e-06 6.0471384e-06
-1.9456444e-05 -1.651243e-05 -1.0406099e-05 -2.6318662e-06 1.1044413e-05 -1.7959042e-06 -1.0064626e-05 -1.5347714e-05
-2.2268532e-06 1.7300149e-06 7.291639e-06 -1.1086607e-05 1.7591328e-05 -1.6379898e-05 -3.870064e-05 4.2342625e-05
-2.4084144e-05 -2.0685538e-05 -1.3276184e-05 1.7683473e-05 -1.6495819e-06 3.321941e-05 -9.920425e-06 -1.8605628e-05
-6.94161e-05 3.7111808e-05 3.934315e-06 8.6651255e-07 4.423308e-06 -8.125558e-06 2.2073042e-05 -6.2713157e-06
-1.0466439e-06 2.793181e-07 3.3329165e-05 -6.741726e-06 -5.0983886e-05 -4.245983e-06 -3.1813984e-06 -3.5589132e-06
8.169872e-06 -5.11122e-05 3.790645e-06 -5.180638e-07 4.329593e-06 2.1549074e-06 3.052629e-06 2.4416724e-05
1.2965658e-06 3.6451938e-06 4.9802136e-05 2.8735514e-05 -3.1319828e-06 3.286506e-05 1.0959792e-05 3.143544e-05
-4.6328758e-05 3.558051e-05 -3.2587137e-05 2.101238e-05 4.178383e-05 -3.4664906e-06 9.531309e-06 -2.8148988e-06
7.137324e-06 4.547737e-06 -2.6590478e-06 2.0802521e-05 -2.0247197e-05 1.0435389e-05 -8.827705e-06 2.7294118e-06

exp_avg_sq f4 [98, 49]
00000000: b2b0 3a38 5316 9c38 d7e4 1a38 60bd 8a37
00000010: 9903 2638 52b2 3238 6e7d 0c38 0721 3a38
00000020: 9abc 1c38 54ff f537 eee8 9838 67a7 2938
00000030: f883 1d38 58ff 1f38 0052 bf37 452f bd37
00000040: 421c 8338 57fd 0138 7867 8537 1baa 1a38
00000050: c8c4 7937 4d3f 6736 49c2 f937 9ecc 1638
00000060: 44ef 1e38 7426 b436 10fd 1f36 8848 8037
00000070: 3567 3a38 d934 2338 13cb 9237 d431 c937
00000080: f348 e637 f376 c637 44ed 3738 8b93 ec37
00000090: c8b8 8d37 9352 3038 db95 5238 b701 0a38
000000a0: 9f83 2738 4bf1 c537 2ea9 c637 5ffc c237
000000b0: 4a6b fd37 a70b cf37 5369 c237 e67a d037
000000c0: c479 2138 171a 3a36 55e6 a136 dff0 2f36
000000d0: 7172 2e35 1d6b 4136 835f 2736 036c 0d36
000000e0: 4387 3536 1d02 b735 16d2 cc35 0174 4a35
000000f0: 1ee4 2436 3390 f035 af2f 0d36 f543 1535
00000100: 3940 0136 350f f535 5683 d135 1e6a 9335
00000110: d500 8235 8944 a635 94c2 2736 63c1 3236
00000120: d783 b335 5042 4036 74a9 cf34 61dd 5c34
00000130: 0bc2 aa35 5004 1036 dfaa 1936 7e2b a534
00000140: 50e1 0336 ef70 4135 1d11 9b35 430d b636
00000150: 887d 1f36 9a31 9235 f0dc 1636 de27 3136
00000160: 31ca 1036 a098 3a36 49da dc35 4a51 7d35
00000170: 57ec 9e35 d1f8 0536 36b5 9835 8d99 be35
00000180: 49fc aa35 c49d 0a36 7127 7a36 45cd 0537
00000190: a096 4736 3fcf f335 1538 4636 5c2e 5136
000001a0: 32bf 3336 1ba9 4736 c0bd 3336 33d6 f535
000001b0: e562 1d37 7b21 4f36 e520 1f36 db63 1a36
000001c0: a5b1 2436 2c03 f735 92d0 e836 6392 0936
000001d0: c81d 0936 f2ca 9e36 b546 f535 2b1c d635
000001e0: 309d 5935 b8b9 4835 214d 0136 8196 8c35
000001f0: 8ff2 7b34 023b 1036 69c0 6136 702d 7636
00000200: 2ff1 c334 d94a 8935 fd5e 2d36 9d0a 2236
00000210: 5944 8735 6201 ff35 fe6a 1736 4440 2d36
00000220: aa57 6736 212f 5236 3769 7336 1229 4536
00000230: de3b 4936 b2c2 0536 0798 4b36 b8fb 1e36
00000240: dc37 1236 59f0 2c36 ab6b 3d36 58fb c635
00000250: 386a 3436 4919 ae35 a471 8e34 582d b135
00000260: adca bc35 c865 b235 2260 b635 f9fc ac35
00000270: 3f8b 9135 d29d 4236 f8b8 d135 2c3b b735
00000280: 86f1 b035 92cd 0935 3a71 6935 225b 5836
00000290: 0585 9b35 3766 1d35 6268 ec35 fa44 3135
000002a0: 443d 9535 03cf 0136 1dd2 c235 ba4e 5c35
000002b0: f94e 8f34 67e5 b533 7d6a a635 d396 b535
000002c0: 8ec9 bb35 b9dc 1135 e8fc a735 11d8 6735
000002d0: 86ba 1d35 0ec8 8536 5427 3f35 d97f a435
000002e0: 2d72 c935 a185 d535 3666 af35 0546 ce35
000002f0: a2ee 3535 180d 3435 8006 3e35 2e40 8535
00000300: 8014 de34 8e2e 5635 9f62 7135 8945 c035
00000310: dfc5 9637 ffa4 c037 79c4 b337 bd66 dc37
00000320: f84b 9437 01aa 5237 efc0 9337 b321 ce37
00000330: 8e09 ff36 544e 5b37 e201 0e37 ca7e 9837
00000340: 7eef a137 a6bd a637 b2eb b036 5b01 0137
00000350: 2b4b 9d37 4777 4d37 4d24 0e37 e415 3437
00000360: a170 f636 8b38 8c36 9ecc a737 7e8c 8f36
00000370: 8014 0238 f89d 8636 edc5 9936 746d 7436
00000380: b080 8e37 12c0 a937 2c29 1b36 1918 8437
00000390: 8185 2a37 69e9 d236 08bb ea37 a970 7336
000003a0: 19bc c336 6807 a837 acbc c437 1825 a037
000003b0: bc0e 9337 4b2f 0f37 9513 b136 f020 8637
000003c0: a9cd b437 71cd f836 055e cd37 8eff 7837
000003d0: 3c37 7d37 2940 da35 701e 3d36 ee59 7b35
000003e0: f911 9535 1d97 ad35 f88a c635 8b9c 8d35
000003f0: 4514 9735 134d ca35 f638 ab35 9248 8836
4.4510416e-05 7.442818e-05 3.6929585e-05 1.6539067e-05 3.9580835e-05 4.260458e-05 3.3495417e-05 4.4376615e-05
3.7368947e-05 2.9325172e-05 7.291311e-05 4.0448645e-05 3.7554622e-05 3.814636e-05 2.2807159e-05 2.2552567e-05
6.25183e-05 3.0991938e-05 1.5903017e-05 3.6874884e-05 1.4887373e-05 3.4458528e-06 2.9773584e-05 3.595335e-05
3.789297e-05 5.3688946e-06 2.3840148e-06 1.5292564e-05 4.4441975e-05 3.8911447e-05 1.749912e-05 2.398427e-05
2.7452106e-05 2.365883e-05 4.385157e-05 2.8202097e-05 1.6894555e-05 4.2038573e-05 5.0207465e-05 3.290336e-05
3.9938484e-05 2.359659e-05 2.368222e-05 2.3244122e-05 3.020991e-05 2.4681749e-05 2.3175648e-05 2.4852761e-05
3.8498794e-05 2.7731346e-06 4.824988e-06 2.6217238e-06 6.4986585e-07 2.882159e-06 2.4940534e-06 2.1073508e-06
2.7049834e-06 1.3635178e-06 1.5260327e-06 7.541967e-07 2.4570686e-06 1.7923361e-06 2.1038393e-06 5.5605716e-07
1.925988e-06 1.8258348e-06 1.5609937e-06 1.0983238e-06 9.685997e-07 1.238791e-06 2.4998199e-06 2.6636633e-06
1.337491e-06 2.8648828e-06 3.8680048e-07 2.0569634e-07 1.2722461e-06 2.1460182e-06 2.2898237e-06 3.076529e-07
1.965167e-06 7.206244e-07 1.155338e-06 5.4255665e-06 2.3765915e-06 1.0892284e-06 2.2480344e-06 2.639826e-06
2.1575363e-06 2.7805e-06 1.6454807e-06 9.4368136e-07 1.1840701e-06 1.9963375e-06 1.1377622e-06 1.4200792e-06
1.2739412e-06 2.0655434e-06 3.727586e-06 7.975211e-06 2.9740986e-06 1.8165227e-06 2.9536943e-06 3.1170412e-06
2.6784369e-06 2.9751743e-06 2.6783528e-06 1.8316263e-06 9.380955e-06 3.0864892e-06 2.3711993e-06 2.3005912e-06
2.4541307e-06 1.8403857e-06 6.9384196e-06 2.04998e-06 2.0431926e-06 4.732393e-06 1.8274501e-06 1.595244e-06
8.106754e-07 7.477606e-07 1.9267393e-06 1.0474615e-06 2.3464439e-07 2.149202e-06 3.363961e-06 3.6683305e-06
3.6497065e-07 1.0229079e-06 2.58343e-06 2.414606e-06 1.0078176e-06 1.8999383e-06 2.256303e-06 2.5816416e-06
3.447271e-06 3.1319871e-06 3.6271065e-06 2.9379194e-06 2.9986181e-06 1.9931872e-06 3.0337849e-06 2.3690354e-06
2.178821e-06 2.5769898e-06 2.8225866e-06 1.48253e-06 2.6883918e-06 1.2971369e-06 2.6532246e-07 1.3200724e-06
1.4066078e-06 1.3291656e-06 1.3588035e-06 1.2888623e-06 1.0843868e-06 2.9000116e-06 1.5625546e-06 1.3651784e-06
1.3183314e-06 5.133562e-07 8.696403e-07 3.2239554e-06 1.1587114e-06 5.86358e-07 1.761375e-06 6.603801e-07
1.1119196e-06 1.9342995e-06 1.4515277e-06 8.207095e-07 2.6693286e-07 8.470197e-08 1.2398956e-06 1.3529447e-06
1.3991246e-06 5.4337903e-07 1.2516075e-06 8.6368624e-07 5.8758485e-07 3.9869983e-06 7.1210275e-07 1.2256161e-06
1.5008897e-06 1.5908628e-06 1.3068263e-06 1.5368574e-06 6.777501e-07 6.707428e-07 7.0789974e-07 9.927951e-07
4.1365638e-07 7.978896e-07 8.992301e-07 1.4325352e-06 1.7973534e-05 2.2965016e-05 2.1429953e-05 2.6273885e-05
1.767835e-05 1.25565575e-05 1.7613607e-05 2.4572806e-05 7.6007045e-06 1.3071654e-05 8.464298e-06 1.8178853e-05
1.9304218e-05 1.9877054e-05 5.2726473e-06 7.689315e-06 1.8750861e-05 1.2246724e-05 8.4723115e-06 1.0733933e-05
7.344483e-06 4.1789076e-06 2.0003234e-05 4.2780875e-06 3.1013507e-05 4.011901e-06 4.582797e-06 3.6422543e-06
1.6987644e-05 2.023581e-05 2.3120765e-06 1.5746848e-05 1.0163873e-05 6.28566e-06 2.7982067e-05 3.6275399e-06
5.8333503e-06 2.003061e-05 2.3452878e-05 1.909076e-05 1.7530627e-05 8.5344755e-06 5.2772907e-06 1.5989383e-05
2.155344e-05 7.4148925e-06 2.4481686e-05 1.4841453e-05 1.5092835e-05 1.6260939e-06 2.8180912e-06 9.363565e-07
1.1106596e-06 1.2933484e-06 1.4792595e-06 1.0550879e-06 1.1256276e-06 1.5072604e-06 1.2757071e-06 4.061564e-06

exp_avg f4 [98]
00000000: 4558 a036 5b8c 65b7 6d0e 2cb8 aa77 0fb7
00000010: bdb0 7bb7 27eb 7537 4a7a 95b7 fee2 0136
00000020: 6e4d 1db7 dbc7 3737 86d7 13b6 fe76 81b7
00000030: b9bf 5db7 cc03 2136 f289 aeb5 7cd5 18b8
00000040: 2fb7 a2b7 0543 0cb8 ce7b 6bb7 bbc5 ecb6
00000050: 0411 2db7 c3a0 1bb7 9783 edb7 5664 9936
00000060: 625d 60b7 2917 c9b7 657b 79b6 d25d 4934
00000070: c6f5 38b7 da43 e2b7 cd44 4fb8 6422 11b6
00000080: 781b 04b7 a1f9 91b7 4bd8 c4b7 8c74 4db6
00000090: 920e dd37 a68e 47b8 5e7e 4ab7 2129 b1b7
000000a0: ee3c feb6 4b95 37b8 a580 f436 aee9 e2b7
000000b0: 9512 37b8 2460 1637 c5cc 50b8 3250 4db7
000000c0: 9b07 dbb7 0727 98b7 f3b1 7938 e9ad 60b7
000000d0: 6ab8 8537 8900 13b6 b02d 64b8 dba2 dcb6
000000e0: 1cf3 d537 1c9f 90b8 e5da 49b7 08d1 9db8
000000f0: 6339 3cb7 9e73 fab6 0bb0 09b8 2d51 39b8
00000100: 9f3a 4bb7 4d33 0037 ceb2 81b7 8d2d 71b8
00000110: 3010 0cb7 c03d 48b7 4cc3 1ab7 4443 7fb8
00000120: 6260 17b8 ffa5 5ab7 5c32 25b8 f7bf b3b6
00000130: 46d2 56b7 94f4 ad35 22c0 d4b6 22a7 d436
00000140: 6451 9db7 07b7 cbb7 6e65 43b8 3c6d 4eb7
00000150: 198d a9b7 39a6 81b7 a2c7 1fb8 9ad0 7535
00000160: e5da 9837 3228 f5b5 2276 d3b7 9696 1ab8
00000170: d51e 85b7 f074 e0b7 ac10 2cb7 b937 0db8
00000180: 5354 9ab6 9e76 e6b7
4.7786475e-06 -1.3682143e-05 -4.102143e-05 -8.551326e-06 -1.5001916e-05 1.4657889e-05 -1.781913e-05 1.9354625e-06
-9.375957e-06 1.09541825e-05 -2.2030158e-06 -1.5433408e-05 -1.3217265e-05 2.399308e-06 -1.3004158e-06 -3.6438447e-05
-1.9397206e-05 -3.3441018e-05 -1.4035917e-05 -7.056367e-06 -1.0315565e-05 -9.27615e-06 -2.8313878e-05 4.571436e-06
-1.3373183e-05 -2.3971852e-05 -3.7175716e-06 1.8753715e-07 -1.1024478e-05 -2.6972895e-05 -4.941672e-05 -2.1626702e-06
-7.874209e-06 -1.740159e-05 -2.346574e-05 -3.061522e-06 2.6352038e-05 -4.757815e-05 -1.206956e-05 -2.1119196e-05
-7.576883e-06 -4.376964e-05 7.286743e-06 -2.7050115e-05 -4.3647906e-05 8.963081e-06 -4.978177e-05 -1.2237624e-05
-2.6110376e-05 -1.8137986e-05 5.9531954e-05 -1.3391932e-05 1.594071e-05 -2.1905018e-06 -5.4401986e-05 -6.57547e-06
2.5504785e-05 -6.8960915e-05 -1.2031499e-05 -7.5252785e-05 -1.1219035e-05 -7.46404e-06 -3.2827298e-05 -4.4183038e-05
-1.2113392e-05 7.641339e-06 -1.546126e-05 -5.75013e-05 -8.348419e-06 -1.1935306e-05 -9.224586e-06 -6.0859384e-05
-3.609097e-05 -1.30324615e-05 -3.9385966e-05 -5.3569634e-06 -1.2804352e-05 1.2960686e-06 -6.3404595e-06 6.337549e-06
-1.8753759e-05 -2.4284715e-05 -4.6586087e-05 -1.230399e-05 -2.0212074e-05 -1.5455402e-05 -3.8094477e-05 9.157317e-07
1.8221743e-05 -1.8265621e-06 -2.520817e-05 -3.6856705e-05 -1.5869193e-05 -2.6757334e-05 -1.0255881e-05 -3.3668915e-05
-4.5993743e-06 -2.7473372e-05

exp_avg_sq f4 [98]
00000000: 0992 1c38 17d3 2a36 07b6 4b36 b61b b335
00000010: 4ef9 3737 81f0 9135 2111 5536 1d9a 7537
00000020: 95ca 8c34 b6d6 dc36 62d8 8f36 399a 0d36
00000030: fab3 8a34 b039 9036 bc2d 4734 289e 9936
00000040: a776 4135 28fe 0c35 b91c ca34 e50f fb35
00000050: a3c5 6736 891d 9336 9e36 9c37 6d5a 1836
00000060: 9ec4 ef36 e241 4a37 cffd eb36 d13b 1637
00000070: b6c8 8c35 feec 0036 d5c5 d236 b988 0b37
00000080: b391 7835 7a9d cd36 f0cd 3135 b6be 3935
00000090: b68a ae37 1a16 4437 85bf f333 b06b a435
000000a0: cbe5 9f37 fdb4 2236 0501 ac37 5e68 d834
000000b0: 2669 da36 4c88 0238 38e0 9e36 2672 ba34
000000c0: 66a5 ba35 6ab6 0436 dc7a 1238 d6de 8e37
000000d0: 1d57 9037 2004 c136 0b50 c636 f125 f436
000000e0: c99c d136 b57c 6f37 c21a 7736 a3fc ee36
000000f0: 8338 0136 7ac7 6636 373c 5736 8f44 2d37
00000100: c938 1f35 d5a5 de36 ddca a435 e6cd 7037
00000110: 9985 2a36 d84f 4635 bb68 6036 4e5b d936
00000120: df4f d935 bb3b a336 098e 3d36 e477 3235
00000130: 4181 5236 f226 0135 4a41 e634 9983 3735
00000140: f53c 0636 9003 1437 4c5b 8236 abb6 ad36
00000150: 959b 5e36 9ad7 4037 4797 8437 c61d cf37
00000160: bdc9 7c37 a1f5 6f37 756e 0036 c194 8036
00000170: e29f 8d35 d901 a036 2f5f 0635 76c6 3436
00000180: 95fa 9d35 002e d536
3.7329304e-05 2.5454844e-06 3.035531e-06 1.3344604e-06 1.0965696e-05 1.0873338e-06 3.1749444e-06 1.463902e-05
2.622443e-07 6.5815066e-06 4.2869224e-06 2.1100407e-06 2.5835453e-07 4.29825e-06 1.8549957e-07 4.578167e-06
7.2070765e-07 5.252391e-07 3.764633e-07 1.8705583e-06 3.4536722e-06 4.3843797e-06 1.8622082e-05 2.27024e-06
7.1456443e-06 1.2055478e-05 7.033093e-06 8.954624e-06 1.0489227e-06 1.9211434e-06 6.2815184e-06 8.316879e-06
9.259922e-07 6.127809e-06 6.6237317e-07 6.919539e-07 2.0807009e-05 1.1687656e-05 1.13504065e-07 1.2250293e-06
1.9061283e-05 2.424523e-06 2.0504473e-05 4.0309072e-07 6.509147e-06 3.112135e-05 4.7348694e-06 3.4728254e-07
1.3906217e-06 1.9775712e-06 3.4923534e-05 1.7031485e-05 1.7206703e-05 5.7523284e-06 5.910178e-06 7.2761836e-06
6.2469376e-06 1.4274546e-05 3.6821443e-06 7.1223635e-06 1.9255392e-06 3.4388781e-06 3.2072546e-06 1.0327566e-05
5.931475e-07 6.635421e-06 1.2277993e-06 1.4353054e-05 2.5409738e-06 7.3876936e-07 3.3439562e-06 6.477733e-06
1.6191005e-06 4.864732e-06 2.824587e-06 6.648463e-07 3.1367674e-06 4.811292e-07 4.2888342e-07 6.836431e-07
2.0003038e-06 8.822317e-06 3.8849303e-06 5.177067e-06 3.3171139e-06 1.149429e-05 1.580607e-05 2.4690187e-05
1.5067341e-05 1.43027e-05 1.913778e-06 3.8320145e-06 1.0551851e-06 4.7685867e-06 5.00574e-07 2.693761e-06
1.177034e-06 6.35325e-06
